malconv_model_10 steps.pth (torch, 284106 bytes, 8 tensors)

embed.weight f4 [257, 8]
00000000: 0000 0000 0000 0000 0000 0000 0000 0000
00000010: 0000 0000 0000 0000 0000 0000 0000 0000
00000020: f5c1 803e fafa 7cbe 7dae 85bf 075f a13f
00000030: f732 cdbd a0d2 efbf 9719 53bf 14cb 17c0
00000040: 0ab1 093e af68 4fbf fe58 8e3f 92c6 ac3e
00000050: 6b6c 11bf 2449 de3f 27ce 15c0 c2f5 74bf
00000060: d0fb 74bf b4d9 993f d286 11bf cd9b 82bf
00000070: 8d98 b9be 6f22 2abf a58b 43bf 2b7d 923f
00000080: d751 6cbe 9c34 0cbf bdca 9abf 4525 11bf
00000090: 279c 483f 8473 3abe 7df7 a8bf f325 a9bd
000000a0: aad1 453e ab69 a53e 7f5f 8dbe 7efc fe3f
000000b0: 3642 b93d a9ea 16be 4f7e 07bf 44dd 4ebe
000000c0: 3f36 9d3e 4186 9b3f 9982 683d ce1f 3f3f
000000d0: 0c42 383f 8f3e 5dbe f667 113f 4f58 413e
000000e0: 4e29 e3be 07ef 783f fa59 74bf db3b 0b3f
000000f0: 9f52 5b3f 5bb0 6b3d 5c55 883f df99 ff3f
00000100: a40b f93f f3bf 43bf 2659 89bf 5523 c23e
00000110: 0b57 4ebf 0b4a e83c 1f05 dabd 49c1 9a3f
00000120: 96a5 56bf 3dc5 2c3e 4e4a f73e e3d4 a1be
00000130: da63 b03f aa6a b4bd faf9 c1bf 6755 0bc0
00000140: 9dbe 8ebf 15b9 ac3f 06a0 f83e e457 4abf
00000150: 601c 873e 5235 dbbe 110e 2e3f 0530 cabd
00000160: c4dd 2ebf cc62 a5bf 1945 833f 64ce 163e
00000170: 59b2 4abf 33f5 db3f b17d c6bf 473e 803f
00000180: 0586 d4bf fa99 3cc0 087e 8abd 8b59 f83f
00000190: b00f 4f3c 1818 ad3f 9ee9 91bf 0042 9ebe
000001a0: 6cce 6a3e d0f6 c53e 0ea6 4f3f 7bff 5ebf
000001b0: d55d 07c0 1fdc b03f 8bde cb3f 090e 123e
000001c0: fc40 3cbf f839 983f b6d3 8d3e fdc2 563e
000001d0: 492e 613e ddb4 c83e f17a 0fbf eb13 763f
000001e0: 2cb3 c0bc 0b7e 58bf 8cea 823e 25e4 ab3f
000001f0: 22e2 923d 1306 373e aed0 d43e ba87 a23f
00000200: e5de 2a3f bd8d 72bf 7965 84bf 1fa1 32bf
00000210: d62f 82be fb8d dd3e 8df8 823f 3409 17bf
00000220: 8258 4f3f 1f92 a23f c18b 323e cadf a3be
00000230: 759c 3dbf 8c8f d5bf 6ac8 273f 34c6 923e
00000240: b3de 14c0 a065 cf3f f5d8 21bf 1889 e8be
00000250: 34e2 053e 5452 bebe d177 7b3f 6a78 763e
00000260: 1720 25bf 2669 32bf 46aa 50bf b366 85bf
00000270: 7ce8 0c3f 08e2 63bf e075 503f d48b ec3b
00000280: e121 8f3f dc04 943f 6918 1abc 4ed7 c5bf
00000290: 562d ffbe 7970 43bf 4470 0bbf ec16 95bf
000002a0: 2d86 ca3e 49fc 8d3f f6fa 80bf d8e9 b6be
000002b0: a2a0 be3f 225a d43f c576 6c3f 9f6c 9fbf
000002c0: 51dd 98bf 0e1a 7b3f daee 813f 0848 a93d
000002d0: b438 07be 5815 dc3e e869 e1be 8162 01bf
000002e0: b778 513f e400 ed3d 651a 1d3f 5dab 8abf
000002f0: 5aaa 8cbf 495b 133f 6abc 383e 628c 843f
00000300: 96d7 a53e c432 febe cfe3 483f 6f5c ab3d
00000310: 8d7c 6a3f 5b7b 76bf 19ea a43f ddf0 67bf
00000320: 2434 8bbe bb41 c2be e335 11bf 7904 d23c
00000330: 6e1f 8e3f 3b4a b4be 6a9a 003f e7f8 7ebe
00000340: 41b8 2340 7706 b0be 207c 843f 63dc 7bbf
00000350: e853 993f 90d1 a5bd 6277 ef3c a038 6c3f
00000360: 14ce e5bd ebb4 d53e 2321 103f 884c 33bf
00000370: ffba d93f 0c5e d23f 28ab a93d cbfa a33f
00000380: e0d8 563f 417a b5bd 6814 35c0 7028 f13e
00000390: 3fd2 ecbf 9163 a93f 2aae a1bf 419b f4bb
000003a0: 74aa 943f ebb9 90bf e012 eb3f cccf 21bf
000003b0: bbdc 1e3f 3e99 10bf f222 b1be 4bb7 5e3e
000003c0: 6471 f93d 0422 223f 73ff bd3d 11cc 09c0
000003d0: d6f4 c43e 1f09 60bf 11a0 053f 076a a7bf
000003e0: b67f 4f3f 7eca 3b3f 9d67 343e 1990 0bbf
000003f0: 049b 0a40 c0fe 92bf 5524 ecbf 6258 71bf
0.0 0.0 0.0 0.0 0.0 0.0 0.0 0.0
0.25147977 -0.24705115 -1.0443875 1.2607125 -0.100194864 -1.8736153 -0.8246092 -2.37177
0.13446441 -0.8101911 1.1120908 0.33745247 -0.5680606 1.7366071 -2.3407075 -0.95687497
-0.95696735 1.2019563 -0.56846344 -1.0203797 -0.362492 -0.6645879 -0.76384956 1.1444448
-0.23078094 -0.54767776 -1.2093121 -0.56697494 0.7836327 -0.18208128 -1.3200527 -0.08259191
0.19318262 0.3230718 -0.2761192 1.9920805 0.09045832 -0.14737953 -0.52927107 -0.20201594
0.3070545 1.2150346 0.056765173 0.74657905 0.7197578 -0.21605895 0.56799257 0.18881343
-0.4436745 0.97239727 -0.95449793 0.5438821 0.85672945 0.057541233 1.065105 1.9968833
1.9456677 -0.76464766 -1.0730331 0.3791758 -0.8060157 0.028355619 -0.10645508 1.2090236
-0.83846414 0.16872115 0.48298877 -0.31607732 1.3780472 -0.08809407 -1.5154412 -2.1770875
-1.115192 1.3493983 0.48559588 -0.7904036 0.26388836 -0.42814118 0.67990214 -0.0987244
-0.6830714 -1.2920775 1.0255462 0.1472717 -0.79178387 1.7184204 -1.5507108 1.0019006
-1.66034 -2.946898 -0.0676232 1.9402326 0.012638018 1.3522978 -1.1399419 -0.3090973
0.22930306 0.38664865 0.81112754 -0.8710858 -2.115102 1.3817176 1.592729 0.14263166
-0.7353666 1.1892691 0.27700585 0.2097282 0.21990313 0.39200488 -0.5604697 0.9612414
-0.023522936 -0.84567326 0.2556957 1.3428999 0.07172038 0.17873411 0.4156546 1.269767
0.6674636 -0.94747525 -1.0343467 -0.697771 -0.2542712 0.43272385 1.0232102 -0.5899842
0.8099443 1.2700843 0.17436124 -0.32006675 -0.7406686 -1.6684432 0.6554018 0.28666842
-2.3260925 1.6202888 -0.63221675 -0.45417094 0.13074571 -0.37172186 0.982297 0.24069372
-0.6450209 -0.69691694 -0.81509817 -1.0421966 0.55042243 -0.8901677 0.8142986 0.0072188172
1.1182214 1.1563983 -0.009405234 -1.5456331 -0.49839276 -0.76343495 -0.5446818 -1.164762
0.39555493 1.1092616 -1.0076587 -0.35725284 1.4892771 1.6590006 0.9236873 -1.2455024
-1.194254 0.9808663 1.0151017 0.08265692 -0.13205224 0.42985034 -0.44026113 -0.5054093
0.8182482 0.115724355 0.613684 -1.0833546 -1.0989487 0.57561165 0.18040624 1.0355341
0.32391042 -0.49648106 0.7847261 0.0836724 0.915963 -0.96281976 1.2883941 -0.90601903
-0.27188218 -0.37940773 -0.5672285 0.025636898 1.1103342 -0.35212883 0.5023562 -0.24899636
2.558121 -0.34379932 1.035038 -0.9838316 1.1978731 -0.080966115 0.02923173 0.922739
-0.11220947 0.41739592 0.5630056 -0.7003865 1.7010192 1.6434951 0.082845986 1.2810911
0.83924675 -0.08861209 -2.8293705 0.47101164 -1.8501662 1.323351 -1.2631276 -0.007464797
1.1614518 -1.1306738 1.8365135 -0.632077 0.6205556 -0.5648383 -0.34596974 0.21749608
0.12179831 0.63333154 0.09277239 -2.1530802 0.38468045 -0.8751392 0.52197367 -1.3079232
0.81054246 0.73355854 0.1761765 -0.5451675 2.1657114 -1.1483994 -1.8448588 -0.94275486

conv_1.weight f4 [128, 4, 50]
00000000: ac18 bfbc 3fbf 163d 7d4b 9ebd 35c3 8e3d
00000010: 1aa8 1fbd 6baa 963d e23a 5e3c 895e 6cbd
00000020: e285 a03d da5a e23c f6d9 59bd b191 803c
00000030: b546 fcbc 1c39 22bc 043d 62bb ce80 08bd
00000040: 1dfc dc3c f0b1 233d cefe eb3a c9ea bfba
00000050: a094 1c3d 2534 983c bde0 9abc 6397 d93a
00000060: 1b69 b6bc 19b5 35bd 78f7 d63c 513f 673d
00000070: c457 8e3c 27ea 70bc db1c 483d ade2 94bb
00000080: e166 8dba c0fc b6bd 5141 84bd 44b3 7cbd
00000090: 951f 7fbd 9a00 813d 8909 25bc cb01 bf3d
000000a0: 6f9b b7bc 94c4 a7bc ae9a 9c3b df02 17bd
000000b0: 1194 5a3c 94da fa3a 11b0 b3bc f016 703d
000000c0: 62d8 5c3d 6b65 22bd 7144 4ebd f0ca 8b3d
000000d0: 5f1c 553d a9b1 243d 4cf0 493d 3913 a1bc
000000e0: af2c 303d c5f6 70bd 63f9 f3bc 9e5c 8f3c
000000f0: 11f4 d1bc 9696 54bd 8eb4 0a3c f964 1ebd
00000100: 5f3a 39bd dbc1 893c 519e c23b 36cf 073d
00000110: e1ff a53d 29f4 37bd 8ab0 063d d9c9 25bd
00000120: 4eab ef3c 2400 8a3d c94e d3bc 5a77 cfbc
00000130: 401e 51bc 06dc 24bd de97 3a3d a359 41bc
00000140: 75d9 80bd fa37 093a 5e09 083d aaa2 ce3d
00000150: b368 ed3c e645 50bc cc52 303c c0c9 f238
00000160: f985 a93d 2d87 a43d 04dd edbc 628e 983d
00000170: fed7 6f3d baf1 b0bc 02c2 8cbd daef 8a3c
00000180: 353f 18bd 7bf7 8ebd d10b 543d f70c 70bc
00000190: 97cc cebc f59e 81bd 053e 833d 8408 72bd
000001a0: face db3c 0b88 2d3d 6e1a a9bd b9e6 323c
000001b0: 54af 963d 9365 373c 0641 38bc 0ab9 48bd
000001c0: 3e31 15bd f0fe 243d 7d39 8bbd 7be1 723d
000001d0: e0f5 4aba bd96 bf3c cc7b 5abd 2463 e83c
000001e0: 1aab ad3d 56a3 3cbc 6881 643d 544a 983c
000001f0: 2625 973c 649e 2b3d beb2 553d 6fe0 01bd
00000200: f02f 79bd 6144 3d3d b8a1 c9bc aef2 233d
00000210: 8c62 25bb ae01 473d dfba d53c 85d3 123d
00000220: 4146 623c 8be9 853d af10 42bd 8561 2fbd
00000230: f811 463d c1d4 18ba 6e63 ad3d 224a 49bd
00000240: 90bc 97bd 8ddd 973c d4ad 95bc bc34 85ba
00000250: 18fc bebb 2ceb 773d c0f0 0a3d 4e7c 1fbc
00000260: 26fc 8d3b 15ae b2bd ce93 843c b592 743d
00000270: 90e7 cd3a ac35 063d b2e0 4d3d 6c6b 5e3d
00000280: 44e5 763d aea9 62bd fe02 4a3c 3e52 72bc
00000290: 88a4 873d e960 33bc 8c13 683d 763e 833d
000002a0: 4d2b 14bd 96dc 9dbb 04e7 0b3d 0e01 8fbd
000002b0: 412a 15bd 9753 ec3c 7c3b 50bd 928f 48bc
000002c0: 314d 8ebd 6028 46bd 3738 a0bd 6f87 043d
000002d0: 0003 d9bd 1e9a 913c de8e 92bc 4086 8f3d
000002e0: 77db 0e3d a7b2 90bd 3426 5f3c b4d1 fabc
000002f0: c16a 2f3c 9df8 c9bc e171 25bd d783 2b3d
00000300: d942 6bbd 9b25 75bd b0c1 7c3d ac77 993d
00000310: 12be 663c e1f3 25bd d409 493d 3704 86bd
00000320: 3ddb 633d 7378 873d 7225 04bd 9ba7 333c
00000330: b511 21bd 3e73 323d 6af7 bc3a 7f1f a4bc
00000340: fff3 6fbd 1420 b8b8 0ecf 39bd ada6 28bd
00000350: 7d10 8dbd a550 d5bc 0b65 cb3c f000 d33b
00000360: 0e61 3fbd 48db a8bb d743 383d 7f1e 2dbb
00000370: 0679 413d 8f8c e8bc 7a51 69bd c353 da3c
00000380: 1509 2a3d 0488 55bd a640 77bd 9e38 53bd
00000390: 24dc 863d 6061 88b9 8b26 dc3c 24c4 533d
000003a0: 9832 31bd d2c2 9ebd 47aa 66bc 7859 833c
000003b0: 1d70 28bd 76b7 523c 0da1 9a3c 7f24 523a
000003c0: b2ce 783d dd98 62bd 4a86 53bc 2909 8e3d
000003d0: 887c 49bd 2eac c43c 5ba9 9a3c 69aa 223c
000003e0: d59a 5dbb 6ec6 92bd 5d36 1e3d 9272 fd3c
000003f0: b1a1 58bd 6af0 58bd 1f48 12bd 1167 183b
-0.023327194 0.03680348 -0.07729242 0.069708265 -0.038978674 0.073567234 0.013563843 -0.057707343
0.07838036 0.027631212 -0.05318638 0.015694471 -0.030795434 -0.009901311 -0.0034521231 -0.033325963
0.026975686 0.039964616 0.0018005015 -0.0014642115 0.038227677 0.018579552 -0.018905992 0.0016600903
-0.022266915 -0.04436216 0.02624105 0.056456868 0.017375834 -0.014704264 0.048855644 -0.0045436234
-0.0010788107 -0.08934927 -0.064577706 -0.0616944 -0.06228598 0.06298943 -0.010073074 0.09326514
-0.022412984 -0.020479478 0.0047791814 -0.036867972 0.013340966 0.0019138628 -0.021934541 0.058615625
0.053917296 -0.0396475 -0.05035824 0.06825817 0.05202901 0.040208492 0.04930143 -0.019662486
0.043011364 -0.058829088 -0.029782003 0.017500218 -0.025629075 -0.051901422 0.008465899 -0.038670514
-0.045221683 0.01681607 0.005939283 0.033156596 0.08105446 -0.044910584 0.032883205 -0.0404757
0.02925649 0.06738308 -0.025794404 -0.025325466 -0.01276356 -0.040248893 0.045554988 -0.011801156
-0.06291477 0.00052344764 0.03321206 0.100896195 0.028980589 -0.012711978 0.010761928 0.00011577038
0.082775064 0.08033595 -0.029036053 0.07449032 0.058555596 -0.02159964 -0.068729416 0.016960073
-0.037169654 -0.06980797 0.05176908 -0.014651529 -0.02524404 -0.06329147 0.06408314 -0.059090152
0.026832093 0.04236607 -0.08256994 0.010919266 0.0735766 0.011193651 -0.011245972 -0.049004592
-0.036423914 0.04028219 -0.067980744 0.059297066 -0.00077423267 0.023387307 -0.05334072 0.028367586
0.08479901 -0.011513552 0.055787474 0.01859013 0.018450331 0.0418991 0.052172415 -0.031708177
-0.060836732 0.04620779 -0.024613246 0.04002636 -0.002523574 0.048585586 0.026090084 0.035846252
0.013810695 0.065386854 -0.047379192 -0.04281761 0.04835698 -0.00058300426 0.0846623 -0.049142964
-0.07409012 0.01853826 -0.018271364 -0.0010162811 -0.0058283918 0.06052701 0.033921003 -0.009734226
0.004333037 -0.0872461 0.01618376 0.059710223 0.001570927 0.03276603 0.050263114 0.054301664
0.06027724 -0.0553376 0.012329815 -0.014790116 0.06623179 -0.010948398 0.056659266 0.06408398
-0.036174107 -0.0048175557 0.03415586 -0.06982623 -0.03641725 0.028848452 -0.05083798 -0.012241261
-0.06948317 -0.04837835 -0.07823222 0.032355722 -0.10596275 0.017773684 -0.01789039 0.07008028
0.034877267 -0.07065325 0.013619948 -0.030617572 0.010706604 -0.02465468 -0.040391807 0.04187378
-0.057436798 -0.059850316 0.061708152 0.07493529 0.014083402 -0.040515784 0.04908164 -0.06543773
0.055629004 0.06614771 -0.032262273 0.010965253 -0.039323527 0.043566935 0.0014416997 -0.02003455
-0.058582302 -8.779779e-05 -0.04536348 -0.04117458 -0.068879105 -0.02603943 0.024828454 0.0064393207
-0.046723418 -0.0051530935 0.044986572 -0.0026415882 0.047234558 -0.028387336 -0.056962468 0.026651269
0.041512568 -0.052131668 -0.060364388 -0.051567666 0.06584957 -0.0002601249 0.026873847 0.051700726
-0.04326114 -0.07752003 -0.014078683 0.016033873 -0.041122545 0.012861123 0.018875623 0.00080163026
0.060743995 -0.055321563 -0.012910435 0.06935341 -0.049191028 0.024007883 0.018879583 0.009928324
-0.003381421 -0.07166754 0.038626064 0.03093842 -0.052888576 -0.05296365 -0.03571331 0.0023254792

conv_1.bias f4 [128]
00000000: 2e0f 023d ac0c 543d fed7 093d 5c26 31bc
00000010: b8a3 84bc 686b 3b3c 2d25 abbc 6b7a 68bd
00000020: 7c23 d7bc ac74 e5bb 108b c8bc 2dc4 0abd
00000030: 101d 27bd 222c 663d 142f 71ba 2027 cd3c
00000040: 84b9 81bd a1fc 483d 48c7 81bc f09b ae3c
00000050: 72cf 8b3c a66b 3d3c 1278 02bd 47ff e83a
00000060: 99b1 14bd 4c50 35bd a4fa 64bd 23e4 c8bc
00000070: 3fba b63c 4bf0 54bd 9286 8bbb 47da ebbc
00000080: 654c 39bc 0ee5 cdba 51d6 8ebb e86e a5bd
00000090: 9bc0 923c feed cabc 46d6 1fbd 591d 6bbd
000000a0: 55d3 733d 45f2 383d 8169 353d a7c4 fc3b
000000b0: 9eda 1eba 7413 423d 2dbf 3fbd 8557 343c
000000c0: 655f 1fbd 38f3 33bd f4a8 2c3d fab9 8cbd
000000d0: 7a9a 22bd acc2 9fbb 78ee e2bc 64c2 413d
000000e0: 8785 433d e7a1 5e3d 9810 8f3c 2e92 0cbd
000000f0: 43ee 84bd 3e43 f93b 8088 d1bc 7d47 55bd
00000100: 9e24 61bc 3f65 97bd 63ee 04bc 2763 9fbc
00000110: 7fa7 9e3b 9b52 5f3d 2fee 7a3d ac58 30bd
00000120: da83 9d3b 640b 123d 8721 bdbc 0516 22bd
00000130: a5d4 cc3c ecc5 013c 5a72 803d 7d10 573d
00000140: 1468 703c 9741 ee3c b213 f83b c9e9 7f3d
00000150: 0bf0 b93c 17ae 363d 7563 8c3b 3006 3f3c
00000160: 94b5 4ebd 7b93 793d f73e 00bd cd1a 7e3d
00000170: 8cfa 04bb 27cf 7e3d 9f6e 593c 0933 f13c
00000180: 6ef4 7c3d bc96 9f3c 82b9 41bc e3e0 713d
00000190: 5e75 933b f1f5 febc 4a31 b8bb ecbc 263d
000001a0: 3713 59bc b84a 8c3a 0403 98bc ab41 11bd
000001b0: 616d e1bc 5811 3a3d aac3 f63c 88a1 3fbd
000001c0: 0e1f 53bb 9a10 0cbd f9be 7cbd d5fc 233d
000001d0: 577a 813d b3d6 033d 9207 c7bc 96a0 86bd
000001e0: f939 243d 369e 26bd 9cd2 60bd d2fd 1a3d
000001f0: 8a5d e33c b7a4 833d 7d05 343d c980 72bd
0.031752758 0.051769897 0.03365325 -0.010812368 -0.016191348 0.011439182 -0.02089175 -0.056757372
-0.026262037 -0.0070024338 -0.024480373 -0.033878494 -0.0407992 0.056194432 -0.00092004356 0.02504307
-0.063342124 0.04906905 -0.015842095 0.021314591 0.017066691 0.01156131 -0.03185279 0.0017776274
-0.036302183 -0.04426603 -0.055903092 -0.024522847 0.022305606 -0.051986974 -0.0042579854 -0.028790606
-0.011309718 -0.0015708522 -0.0043590446 -0.08077794 0.017914107 -0.024771687 -0.039022706 -0.057401035
0.059527714 0.04515292 0.04429007 0.0077138725 -0.0006059798 0.047381833 -0.04681318 0.011007194
-0.038909335 -0.043933123 0.042153314 -0.0687141 -0.0396981 -0.0048755016 -0.027701601 0.047304526
0.047734763 0.05435362 0.017463967 -0.034319095 -0.06490757 0.007606893 -0.025577784 -0.05207013
-0.01374164 -0.07392358 -0.008113476 -0.01945646 0.0048417444 0.054522138 0.061262306 -0.043053314
0.0048069777 0.035655394 -0.023087276 -0.03957178 0.02500374 0.007920723 0.06271811 0.05250596
0.014673252 0.02908401 0.0075707072 0.062478814 0.02269747 0.04459962 0.004284317 0.01165919
-0.050466135 0.060931664 -0.031310048 0.062037278 -0.002029094 0.062209275 0.013271003 0.02944328
0.061756544 0.019481055 -0.011824014 0.05905236 0.0045000752 -0.031123133 -0.00562111 0.040707514
-0.01324921 0.001070342 -0.018556125 -0.035463016 -0.027517976 0.045426697 0.030122597 -0.046784908
-0.0032214555 -0.03419552 -0.061705563 0.04003604 0.063221626 0.032187175 -0.024295602 -0.06573598
0.04009435 -0.040678225 -0.054888353 0.03783972 0.027754564 0.06427901 0.043950547 -0.05920485

conv_2.weight f4 [128, 4, 50]
00000000: 8381 62bd 4cd8 6b3b 097b 283c 31b6 a3bc
00000010: aa39 373d 2480 153d 3fc5 2ebd 7950 12bd
00000020: 05f5 63bc e430 a63c 9af5 1a3d 440a 4c3d
00000030: 5e15 08bd 4ed4 803c d5ca 8cbd 7408 b3bd
00000040: 3ba5 5dbd 165d 3cbd 4090 dcbc 2ef4 61bd
00000050: 8c9b b33c 58b9 8aba cc86 93bd 5962 6a3d
00000060: ba2c 51bd cdab adbc e15d 9d3c 6544 31bd
00000070: 7340 fabc 38f1 40bd 345c 903d d625 483c
00000080: 7a17 5c3d 8622 343d 8aae dfbc 3759 97bc
00000090: 1c3a 453d 5e8c a0bb 3de1 17bc 1fd6 e63c
000000a0: dbf3 23bd d1d7 35bd 3dc7 ff3b 2bc2 12bd
000000b0: b1e5 09bd af15 9b3d 9694 183b ff33 80bd
000000c0: 7e08 6dbd 42d4 da3c 6456 e53b 356b 81bc
000000d0: cc66 1bbd 3a8a 993d 6cb8 61bb 4309 bc3b
000000e0: f283 4f3d d13c 3d3b 14c3 983c d568 603d
000000f0: d33c 823d 99e4 97bc 25f6 a9bb ef20 8fbd
00000100: 3c16 993c b30e a43b 4e3e 313d 02fc cbbb
00000110: fc59 8abd 0647 70bd b802 073d e506 8f3c
00000120: 8945 8cbd a3ce 82bd a8ea 22bd 4a28 a03c
00000130: 427e 1b3d 0669 5ebd a09d 493d c457 2bbd
00000140: ccf7 92bd 4b8a 053c 74c0 64bd 4376 9fbc
00000150: a28c 3bbd 8dda 01bd 60fb b13c 22e8 74bd
00000160: 9b5b e93c dfa3 0e3d 11f1 a9bd e78a 92bd
00000170: 99b0 91bd 3acc d63c 5ebc af3c 07cd 573d
00000180: 0b2b 83bb 63e1 33bc 118b 28bd bb0e 7f3c
00000190: 3d0e 0abd a385 80bc 4948 803d 1488 a9bd
000001a0: 55b3 78bd 9745 41bc d4e6 bdbd e092 cf3c
000001b0: 03dc 71bd c4ba 8fbd f412 d5bc d292 2f3d
000001c0: b2bc 883d c39e 6dbc 5507 a6bc ef4d 6f3d
000001d0: 1ce6 b13b b4d5 43bd d2ac b73c 5aea 32bd
000001e0: 6f89 863d 65a1 ec3c 38b2 88bc cb43 7e3c
000001f0: 1d45 493d dbb7 f9bb 1dd6 c23c 5a15 823d
00000200: b08d a93b facf 713d 1bce 2b3d 2c00 a6bd
00000210: e5ac fd3c ed47 26bc b90f ff3b 33d5 95bb
00000220: 48b1 3d3d ae8d 00ba 2582 263d 9f3d 073d
00000230: bb92 85bd dd0c 80bc 47ec 973d cdeb 65bd
00000240: 7fd9 b13a c312 5bbd f0eb 2abd d472 fbba
00000250: cfa8 01bd 950c 2b3c 3bec 533d e73a afbc
00000260: a66c a93a 5c71 923a df17 da3c 2221 693d
00000270: 4878 3b3c 4d9f 78bc b49a 53bb 1ae1 8d3c
00000280: 86d8 4e3d c442 e03c 9b85 9b3b c4e0 9b3c
00000290: 15fe c0bc 1c97 2bbc ed69 483d 0bb3 35bd
000002a0: 9477 f7bc 12eb 443b 6fe4 1ebd 2ea3 8b3d
000002b0: 67cc ecbc cd82 ab3d a819 5d3d 06cf 77bd
000002c0: 5086 5e3b fe1c 8ebc 699c 8e3d 5589 5ab9
000002d0: 79ff 273b 5a8b 0ebc c0cf c33c 6f32 17bd
000002e0: f0bd 153c a1d7 4a3d 4721 e33b 9c1e c43b
000002f0: 132f eb3c c9f6 463d 0b7a aebc e89f 6b3d
00000300: 1e88 7aba 4f6b ea3d fb68 5ebc 4b92 253b
00000310: 0bf5 62bd fa16 b03d 60b6 9cbc 9fc0 ecbc
00000320: fcb8 323c feda 623d 42ee fbba df28 e33b
00000330: 5c74 8cbc 620f 893d a160 30bd 686f 813d
00000340: 01a0 81bd 370e 5d3d 57b2 723c d961 623d
00000350: ce46 79bd ab8a dcbb cf39 0bbd aa61 453d
00000360: ab67 2cbd c103 563d 0bee 86bd e780 253c
00000370: cb66 d03c 09a4 243d 5219 e1bc 4bd0 153d
00000380: 98f7 653c b350 55bd 273c 953c e2a3 823d
00000390: 5cce c6bb 35c1 73bd a1f2 6b3c 8a10 413c
000003a0: 36ec 743c 16f3 693d 5da4 2dbd 8993 943c
000003b0: c511 55bd 832b 363d d5ce ffba 5c71 c1bc
000003c0: a823 e93c 5bf4 49bd 7767 983c c64f 353d
000003d0: 2903 253d fd30 c53c 85b3 413c 9e66 3ab9
000003e0: 7f90 c63c 6359 833d ff2e 203c 67d3 3b3d
000003f0: 9ecb 983c b871 ca3c dfa5 a4bd 3531 39bd
-0.055299293 0.0035987077 0.01028324 -0.019984337 0.044732727 0.036499158 -0.042668577 -0.035721276
-0.013913398 0.020286985 0.03783188 0.049814478 -0.033223502 0.015726235 -0.06874625 -0.08741847
-0.054112654 -0.04598721 -0.026924253 -0.05516451 0.021924756 -0.0010583801 -0.07203445 0.057222698
-0.051068045 -0.021200085 0.019209804 -0.043278117 -0.03054831 -0.047105044 0.07048836 0.012216052
0.053733326 0.043978237 -0.027304906 -0.018475158 0.04815112 -0.0048995456 -0.00927001 0.028178273
-0.04002748 -0.04439527 0.0078057335 -0.035829704 -0.033666316 0.07572495 0.0023281923 -0.062599175
-0.057869427 0.02671254 0.006998824 -0.01579819 -0.03793983 0.07497068 -0.00344422 0.005738409
0.050662942 0.002887536 0.018647708 0.054787476 0.063592575 -0.018541621 -0.0051868134 -0.069887035
0.01868736 0.005006635 0.04327231 -0.00622511 -0.067554444 -0.058661483 0.032961577 0.017459342
-0.068492 -0.06387069 -0.039774567 0.019550461 0.037962206 -0.054299377 0.04922259 -0.041831747
-0.0717617 0.008150647 -0.0558476 -0.019465571 -0.045788415 -0.031702567 0.02172631 -0.05979169
0.028486064 0.03482425 -0.08297933 -0.071554 -0.071137615 0.02622043 0.021452125 0.052685764
-0.004002934 -0.010979029 -0.04114825 0.015567477 -0.033704985 -0.015688723 0.06263787 -0.08277908
-0.0607179 -0.011796377 -0.092725426 0.02533859 -0.05904771 -0.070180446 -0.026010014 0.042864628
0.06676616 -0.014503184 -0.020267168 0.058423933 0.0054290425 -0.047811225 0.022421274 -0.043680526
0.06569182 0.028885553 -0.016686544 0.015519093 0.049138177 -0.0076207942 0.023783738 0.06351729
0.005174361 0.059036233 0.041944604 -0.081055015 0.030966232 -0.010148984 0.0077838567 -0.0045725345
0.046311647 -0.00049039244 0.04065146 0.03301775 -0.06522127 -0.015631134 0.07418113 -0.05613308
0.0013568847 -0.05348469 -0.041728914 -0.0019184002 -0.03165513 0.0104400115 0.05173896 -0.021390392
0.0012926057 0.00111727 0.02662271 0.056916364 0.0114422515 -0.015174699 -0.0032288255 0.01731925
0.05049946 0.027375586 0.0047461516 0.019028075 -0.023558656 -0.010473039 0.048929144 -0.0443602
-0.030208386 0.003004734 -0.03879207 0.068182334 -0.02890606 0.08374558 0.053979546 -0.060500167
0.0033954568 -0.017347809 0.069634266 -0.0002084126 0.0025634451 -0.008700216 0.023902774 -0.03691333
0.009139523 0.049522046 0.006931457 0.0059850942 0.02870897 0.048575196 -0.021298429 0.057525545
-0.0009557026 0.11446249 -0.013574834 0.00252642 -0.055409472 0.085981324 -0.019129932 -0.028900443
0.0109083615 0.05538463 -0.0019220787 0.0069323624 -0.017145328 0.06692387 -0.043060903 0.06320077
-0.063293464 0.053968634 0.014813027 0.055269096 -0.06085854 -0.0067303977 -0.033990677 0.048188843
-0.042091053 0.052249674 -0.06588372 0.0101015335 0.02543964 0.0401955 -0.027477894 0.036575597
0.014036082 -0.052078914 0.01821716 0.063789144 -0.0060670804 -0.05951043 0.014401109 0.011783728
0.014948895 0.05711659 -0.042393077 0.018136756 -0.0520189 0.04447509 -0.0019516597 -0.023613624
0.028459385 -0.0493053 0.018604023 0.04426553 0.040286217 0.024071211 0.011822586 -0.0001777657
0.024238823 0.064135335 0.00977683 0.045855906 0.01865178 0.024712428 -0.0803945 -0.045212943

conv_2.bias f4 [128]
00000000: a340 873d 07d9 67bc 48a4 753b b88a 8cbd
00000010: 9835 6ebc 39ec 05bd c9d0 90bd 60a8 683b
00000020: 7cbd 6cbd c0dc 89bd e7b4 00bd 9e60 8eba
00000030: c2c2 8bbd cb2d ad3c 4209 a0bc e5e7 4ebc
00000040: b0a2 42bd 842c 1abd d8f2 72bd 38ea 9d3c
00000050: 8f8d 1ebd 568c 47bd 06df b0bc 7d72 2b3b
00000060: 53f9 bb3c 8e70 b43c 1c14 37bd 3f9c 6dbd
00000070: 3c45 89bd 5a8f 83bd a379 b9bc 2d49 cabc
00000080: 3ec0 7dbd 527a 763d 9e35 873d d2d2 65bd
00000090: ebb5 353d 5993 953c 8c7a 93bd 7263 783d
000000a0: 64c2 493d 1a77 6f3c 4bbd 803b 1dcf c2bb
000000b0: 9bd2 2d3c 0dd8 8cbd c231 1a3d 3a85 7e3c
000000c0: 23e9 23bd ba3c 163d ee9c 873c 6b95 823c
000000d0: be92 2f3d 8425 473c 2ac6 95bd b875 8dbd
000000e0: 3c00 78bb b063 98bc 671e a2bd 897f 9ebd
000000f0: 8314 56bd 0d45 253c 2655 5d3c f221 22bb
00000100: 2ffc b1bc 8dc6 36bd 7842 623d 6047 cf3a
00000110: dee8 93bc c027 98bd 1153 20bd b6d9 093d
00000120: 32e6 f7bb e4b6 68bd 86a8 df3c 5265 493c
00000130: b3ff 613d 42e5 083c 7c47 12bd fa37 0abd
00000140: 9916 2cbd c23c 01bb ae42 5ebd daa5 88bd
00000150: 287e 53bd 4918 3b3c 9d30 81bd e0f3 ef3c
00000160: 09eb 613d cf7f 263d 6e92 6bbc 4b08 4b3d
00000170: 7517 33bd dbc3 8abc 26fb 4b3d a60d 343d
00000180: f686 a0bc 8823 55bb 56ae 64bd dc0f 9dbb
00000190: a628 01bd 2cc2 21bd d808 7c3d 4fdc c13a
000001a0: 65f6 47bc 4683 b33c ebe4 71bd 5f8d 9fbb
000001b0: 3c3d afbc e670 1fbd 4a28 523d b7fb 05bd
000001c0: edae 4fbd 6f0f 343d ddaf 10bd 975c b0bd
000001d0: 32b3 85bd d35d 2d3d 8211 0f3d 5866 243d
000001e0: 8130 873c eadf 6fbd f1f3 ad3b c607 c0bb
000001f0: 11d3 dfbc 176f 40bd ad6c 0a3d 4596 ae3c
0.06604125 -0.014150864 0.0037481952 -0.06862396 -0.014539145 -0.032695983 -0.070710726 0.003550075
-0.057797894 -0.06731558 -0.031422522 -0.0010862534 -0.068242565 0.02114 -0.019535664 -0.01262853
-0.047518432 -0.03764011 -0.059313625 0.019276723 -0.03870922 -0.04871782 -0.02159072 0.002616077
0.022946035 0.022026327 -0.044696912 -0.058010336 -0.067026585 -0.064238265 -0.022641009 -0.024693096
-0.061950915 0.060175247 0.066020235 -0.056109257 0.044362944 0.018258737 -0.07201108 0.060641713
0.04925765 0.014615798 0.0039288155 -0.0059451 0.010609294 -0.06877146 0.03764511 0.015534693
-0.04001726 0.036679007 0.016554322 0.015940389 0.042864554 0.0121549405 -0.073131874 -0.06907219
-0.0037841937 -0.018602222 -0.07915955 -0.07739169 -0.052265655 0.010087264 0.0135090705 -0.0024739471
-0.021726696 -0.044622947 0.05523917 0.0015814118 -0.018055376 -0.07429457 -0.03914172 0.03365489
-0.007565283 -0.056815043 0.027302038 0.012292223 0.055175494 0.008355441 -0.035712704 -0.03374479
-0.04201374 -0.0019720052 -0.05426281 -0.06672259 -0.051633984 0.011419364 -0.063081004 0.029291093
0.055155788 0.04064923 -0.014378173 0.049568456 -0.043723542 -0.016939094 0.04980006 0.04395833
-0.019595604 -0.00325224 -0.055830322 -0.0047931504 -0.031532906 -0.039491817 0.06153187 0.0014790389
-0.012204741 0.021913182 -0.059056204 -0.0048691477 -0.021391504 -0.038926028 0.051307954 -0.032710757
-0.05070393 0.04396003 -0.035323966 -0.0861141 -0.065283194 0.042325806 0.034928806 0.040136665
0.01650262 -0.05856315 0.005308621 -0.0058603017 -0.027322324 -0.046980944 0.033795048 0.021311888

fc_1.weight f4 [128, 128]
00000000: c4b7 c53d 470a d0bb 885d ac3d 441e 92bd
00000010: 6746 7ebd 4b84 5cbd f869 6ebd c435 06bb
00000020: 0f77 0bbc 5cf5 d03c 1931 2c3c 545e 8fbd
00000030: 89db 4c3d 2d05 a9ba ce6f 06bd 9a83 88bd
00000040: 7edb 913c 867d b83d 29b2 613d c050 f33c
00000050: 9562 c7bd 2b5d c53c 34f7 783d 6ce5 3f3c
00000060: 24a8 98bd 9e9e ac3d 4faa 51bd 6755 d53d
00000070: c340 553d 4bfd 9dbd 9760 a73d 9a78 2bbc
00000080: 6566 89bd 3f61 443d ae5f 283b 38ce 4fbd
00000090: 678c 703d 74fc 693d 14d6 e4bb 463f 98bd
000000a0: 0472 353d ede0 553c f29a a63b 7353 74bd
000000b0: 3e6a b9bd 2b4e ff3c eba9 94bd 5b9f d9bc
000000c0: 3c01 483d 7c50 293d beba a8bd dff7 863d
000000d0: 77af 033d 4add bc3b 391c a23b 448b ebbc
000000e0: 3d6b 53bd 0e99 d43c 4482 0e3d 1bbc aabd
000000f0: 68db 4dbc 6a12 17bd a1bb 253d 51ed b13d
00000100: df73 83bd ec37 af3d 3c5d 673d 6efd 6c3d
00000110: 5909 963d 8885 31bd 6313 76bd 1412 36bb
00000120: 95fd 13bd b8c7 fe3c 9fd1 863d 5712 5ebc
00000130: a7bf ba3c 6058 9e3d 3427 fd3c 6aea 3b3c
00000140: a028 2f38 ffec 753d e3d1 c6bd b4b8 a0bc
00000150: 2626 ae3d 76ff efba 546b a53d 3fbc 7d3d
00000160: 75fc 3bbd 3073 08bd ed77 9bbd 6e94 98bd
00000170: b3ef 73bd 5b04 d2bb 0957 593d c709 ccbd
00000180: a9d5 86bd 2d2a ab3d e82b 063d eaeb 9dbd
00000190: b765 18bd 8e49 66bb ea74 6d3d b687 e7bc
000001a0: 22d6 d73b a8bd 773d 3bde 0fbd 2ce8 b1bc
000001b0: 849d 22bc dd9d a83d 6dcd af3d 0cbf 5e3c
000001c0: c1de ae3d bf43 82bd 6e98 c73c 1d1d fabc
000001d0: 26df 6ebc e1ce 84bd 8c7f d6bc 9e5e 7a3b
000001e0: 6524 f63c 6fc8 783d 02f4 343c 1072 9dbd
000001f0: f893 b4bd d21e 003d 4c72 acbc dc19 363b
00000200: ca9e 343d 82c5 49bd 9693 36bd dfbf e3bc
00000210: ba8b 113d 8ee9 f4bc 450a e7bb 1a97 e6bc
00000220: ee05 903d f87c 9abc 131d 96bd 4ebd 963d
00000230: b710 ff3c b792 6abb 23e3 8dbd 7c4b 0b3a
00000240: f169 4f3b 3156 c43d 213c 913d 2856 06bd
00000250: 5805 a4bc d18a 063d d391 8f3c 0b3e 85bc
00000260: 286a 163d 123a 34bd d1ed a0bd 14fb cc3d
00000270: 87a0 22bd 0686 bcbc 2774 4ebd 0191 64bd
00000280: 9136 2abd 97cd c93d c99c 4e3d 28ae 7cbd
00000290: e915 dcba b6d0 053d b4f5 8a3c 89fa 983d
000002a0: 027d 4bbd a4c3 713d fd0f 823d ffb3 523c
000002b0: 0a53 15bd b1d6 74bd 0f58 85bd eb14 993d
000002c0: 8adc 8cbc 2cad 1c3d f89f 78bd 022c a63d
000002d0: 01bf 6bbd 5b67 59bc bb8d 853d 25bd a53c
000002e0: c8c7 64bd 68fd 413d 8d64 1abd 1b2d 2d3d
000002f0: eff7 f7bb 74aa b5bc 831d 9c3c 865b 73bd
00000300: 177b 843d 2fb4 6dbd b809 743d 2174 c93c
00000310: f4e5 4b3c 7796 5a3d 46f7 583d 8386 90bd
00000320: dcfc 063c 4b3b 8e3d 68ef bc3d 932c 92bd
00000330: 2e5c 5abc 1fbf 0e3d 34b2 bebc 47d6 bc3d
00000340: cbfc 55bd b2a9 913d 2d50 bc3c 0bc1 953c
00000350: 1b36 a03d 9055 7e3d 4c7c 62bd 3733 783d
00000360: 6fc6 963d 242d 02bb 1744 8a3d fe53 273d
00000370: c444 853d a434 873d f5a8 2cbd a525 53bd
00000380: 9a30 b0bd ae03 b83c efbb c83c f949 8d3d
00000390: 9449 853d 396b ad3d 7c42 773d 056c c5bb
000003a0: 2003 4fbd 2fdc 743d b869 e53c f802 94bd
000003b0: 4c3c 80bd 17b0 5c3d dd40 adbd c0de e23c
000003c0: d205 43bc 4f9d 2f3d 04b1 a2bc 0641 053c
000003d0: 80ef 42bc a57b 39bc 030a 6c3d 7add cfba
000003e0: 008b bd3d dede 633d bae1 c1bd 329d d5bc
000003f0: 93c2 26bd 8702 1b3d 44e7 343c 3678 8ebd
0.09654191 -0.0063488814 0.08416277 -0.07134679 -0.06207886 -0.053837102 -0.05820653 -0.0020478824
-0.0085122725 0.025507621 0.010509753 -0.070004135 0.050014053 -0.0012895219 -0.03282147 -0.06665726
0.017804857 0.09008317 0.055101547 0.02970159 -0.097356 0.024092278 0.060782626 0.011712413
-0.07453945 0.08428691 -0.05118781 0.1041668 0.052063715 -0.077143274 0.0817272 -0.010465765
-0.06708983 0.047944304 0.0025691795 -0.050733775 0.058727648 0.057125524 -0.006983528 -0.074339435
0.044298187 0.013054115 0.005084389 -0.059649896 -0.09053467 0.031165203 -0.07258972 -0.026565244
0.048829302 0.04133652 -0.08238743 0.065902464 0.03214976 0.0057636844 0.004947212 -0.02875293
-0.051615942 0.025951888 0.0347922 -0.083366595 -0.012564518 -0.036882795 0.04046214 0.08687843
-0.06418585 0.08555588 0.0564854 0.057858877 0.07326002 -0.043340236 -0.060077082 -0.0027781771
-0.036130507 0.031101093 0.06582951 -0.013554177 0.022796465 0.077317 0.030902483 0.011469463
4.1761086e-05 0.06004047 -0.097080015 -0.019619323 0.0850337 -0.0018310386 0.08077112 0.061947104
-0.04589506 -0.033312976 -0.075912334 -0.07450186 -0.059554767 -0.0064092106 0.05306152 -0.099628024
-0.06583721 0.08357654 0.032756716 -0.07711013 -0.037206378 -0.0035139057 0.057972826 -0.028262954
0.006586806 0.060483605 -0.035124045 -0.021717153 -0.00992525 0.08233235 0.08584104 0.013595354
0.08538581 -0.06360578 0.024364676 -0.03053146 -0.01457957 -0.064847715 -0.026183866 0.003820337
0.030046651 0.060738023 0.011044504 -0.07687771 -0.08817285 0.031279393 -0.021050595 0.002778641
0.044096746 -0.049260624 -0.044574343 -0.027801452 0.035533644 -0.029896524 -0.007050785 -0.028148223
0.07032381 -0.018858418 -0.07329764 0.07360326 0.0311359 -0.0035793015 -0.069280885 0.0005313677
0.003164884 0.09586752 0.07091547 -0.03279701 -0.02002208 0.03284723 0.01752559 -0.016264936
0.036722332 -0.044000693 -0.0785786 0.10008827 -0.039703872 -0.023013126 -0.05040374 -0.05580235
-0.041555945 0.09853666 0.05044249 -0.061689526 -0.0016791198 0.032669745 0.016962864 0.07469661
-0.049679764 0.059024468 0.06350706 0.012860297 -0.036456145 -0.05977506 -0.065109365 0.07474693
-0.017195005 0.038251087 -0.060699433 0.081138626 -0.057555202 -0.013269271 0.065211736 0.020231793
-0.05585459 0.047360808 -0.03769355 0.042279344 -0.007567398 -0.022176005 0.019057041 -0.059413455
0.0646879 -0.058033165 0.05957958 0.024591507 0.012444962 0.05336615 0.052970193 -0.07056906
0.008238997 0.06944903 0.092253506 -0.07137408 -0.013327641 0.034850236 -0.023278333 0.09220558
-0.052243035 0.07112445 0.02298745 0.018280527 0.0782282 0.062093318 -0.05529432 0.060595717
0.07362067 -0.0019863332 0.06751268 0.040851586 0.065072566 0.06601837 -0.042153317 -0.051549572
-0.0860302 0.022462692 0.024503676 0.06898875 0.065081745 0.08467717 0.06036614 -0.00602484
-0.05054009 0.059780296 0.028004512 -0.07227129 -0.06261501 0.05387887 -0.08459637 0.027694106
-0.011903243 0.04287463 -0.019859798 0.008133179 -0.011897922 -0.011320983 0.057626735 -0.0015858852
0.09255028 0.055632465 -0.09466882 -0.026075933 -0.040712904 0.037844207 0.011041466 -0.06956522

fc_1.bias f4 [128]
00000000: b806 51bc fc0f c83c 6524 9a3c 2c0c abbd
00000010: 117d 1a3d 0f3f 9c3d 07d2 da3b bd7d 9fbc
00000020: 007b 133d 8b61 8cbd 0013 68bc b3dc 8b3d
00000030: 3168 eb3c dff6 4b3c 20f5 68bd de71 c5bb
00000040: b957 5a3d b69a 533d d40f f03c 00a0 fb3c
00000050: 4df7 3fbd f185 97bd 5f2a 2dbd cec1 a5bd
00000060: 4a13 eabc 1273 4bbc 1253 ae3d 856a cfbb
00000070: 5974 3ebd 45f4 74bc d6c3 8c3d ee5b 173c
00000080: 1b70 a93d be61 f83c bdd9 90bc 4f6f 49bd
00000090: 7c3d 9abd b836 393d dac3 0bbd 289e 08bc
000000a0: bafd 833c a369 963c 0044 513c 846d f9bc
000000b0: a47c 553d a9e3 dd3c dca2 b1bc 6113 63bd
000000c0: c197 b4bd 293e 82bb 85c6 84bd da32 ad3d
000000d0: e4d5 953d 62e1 8dbc 4e74 77bd 270e 9e3c
000000e0: 29ea ad3d 5ccc ac3c f797 6e3d 1467 af3d
000000f0: 34d0 7c3d 033d 9bbd 0fe0 993d e751 7cbd
00000100: af21 663d 5f36 913d 1762 70bb 55a5 50bd
00000110: e56e b3bc e80b 923d 935e 373d 88b1 e43c
00000120: dea2 8f3c 069a 113d 389b 863d be6c af3c
00000130: 1866 943c 8b09 273d ec24 113d 1b09 36bd
00000140: 5a1d 0b3d fd98 a3bd 2899 d33c 09d7 85bc
00000150: c93e 9cbd fac5 2c3d 48f0 82bc bbbc 3c3d
00000160: 1dc6 843b 9105 86bd 805a 273d 74fd 933b
00000170: 004f 21bd b8c7 f837 0ba4 a53d b797 083d
00000180: 9a9c 943b c4c8 99bc 7b13 413c 93de aabc
00000190: 8fdb 49bb a2b9 9d3d b9d6 55bd d5f2 c13a
000001a0: 5cad 213d fba8 b53c d9e3 8c3c 5b33 fa3b
000001b0: e8f2 d0bc 6eef 87bd 3bb9 a63d e40e 9dbc
000001c0: 475b fc3c 5b3d 6abd 267a afbd 5517 8abc
000001d0: 9281 adbd cde4 82bd 4976 b9bc f1e4 0fbd
000001e0: f53e 9c3d 92a9 593d 416f 56bd 66ac eebb
000001f0: 5082 f33c 96a9 94bc cd91 a4bd c28f 8a3a
-0.0127579495 0.024421684 0.018816182 -0.08351931 0.03771693 0.07629215 0.0066778692 -0.019469136
0.036005974 -0.06854542 -0.014164686 0.068292044 0.028736206 0.012448995 -0.056874394 -0.006025537
0.053306315 0.051661216 0.029304422 0.030715942 -0.046866704 -0.07398594 -0.042276736 -0.08093606
-0.02857365 -0.012417572 0.08511938 -0.006329837 -0.046497677 -0.0149508165 0.0687329 0.009238226
0.082733355 0.030320045 -0.01768195 -0.049178418 -0.075312585 0.0452182 -0.034122325 -0.008338489
0.016112197 0.018360918 0.01277256 -0.030447729 0.05212082 0.027086096 -0.021684103 -0.055438403
-0.08818007 -0.003974695 -0.06483177 0.08456965 0.07316187 -0.017319385 -0.06041365 0.019293858
0.08491928 0.02109354 0.058250394 0.085645825 0.061721995 -0.075799964 0.07513439 -0.061601546
0.056184467 0.070904486 -0.003667956 -0.050938923 -0.021903465 0.07131177 0.044767927 0.027916685
0.017533716 0.03554728 0.065725744 0.021414157 0.018115088 0.040780585 0.035435602 -0.044442277
0.03396354 -0.079881646 0.025829867 -0.016337888 -0.07629163 0.042180993 -0.015983716 0.046078425
0.0040519373 -0.065440305 0.040857792 0.004516298 -0.03938198 2.9656905e-05 0.08087929 0.03334781
0.00453527 -0.01877249 0.01178443 -0.020858085 -0.0030801033 0.07701422 -0.05220673 0.0014797101
0.03947197 0.022175303 0.01719849 0.0076355166 -0.025506452 -0.066374645 0.08140799 -0.01917214
0.030805243 -0.05718742 -0.0856822 -0.016856829 -0.08471979 -0.063912965 -0.02263941 -0.035130445
0.076291956 0.05314023 -0.052352194 -0.007283735 0.029725224 -0.018147271 -0.08035622 0.0010571408

fc_2.weight f4 [1, 128]
00000000: a933 b73d 78ba b53c d7fb f13d 80e0 973d
00000010: d0f5 f3bc 5f46 c63d e7b4 62bd 5199 e93c
00000020: f363 d63c dc67 323d 7566 003e f9c7 14bd
00000030: 6d4f 163d f2f8 05bc 22db e33c 054a b6bd
00000040: 8e2f 353d cc00 5f3d 433b b9bc e0e1 e43c
00000050: 1d3f 013e aaef 173d 80ef 35bd 2c48 c73d
00000060: b91e 69bd d188 273d c667 253d e346 e93d
00000070: 712c 8b3d f6eb f13d d513 a13d e9d7 ccbc
00000080: b89a 4a3d 08c4 a9bd 6993 f7bc 86c8 ac3d
00000090: 8a49 4dbd b3fd 91bd 4cc0 363d fb0d 02be
000000a0: a062 993c b014 ee3b 9ebd a03d 1025 85bd
000000b0: d2d1 dd3d 17a2 fc3d 8215 a63c 5ac9 28bd
000000c0: 6f40 2f3c 07e1 273e 8ebe d2bd 2ca7 acbd
000000d0: c44d 91bd 940f fcbd 5d29 343d 2e23 bcbd
000000e0: ca5c a7bd 0c43 2cbd 07ce 43bd 7e73 96bd
000000f0: c1de 943d bbd3 223d f05a 2bbd f633 193d
00000100: 46e5 673c a8f0 afbd 8a7a 1f3d 5de5 9fbd
00000110: bdbf b8bd a39f 0a3d 4b91 dd3c 023a 3d3d
00000120: 76fe 303d e9ef 903d 19e4 b2bd 2fb8 acbd
00000130: 9743 ff3c 2486 b9bd e825 86bd 11ca 49bd
00000140: ed47 b6bd c0f6 753b 5528 f4b9 4324 b93d
00000150: 19df f93b 6c82 acbd 2260 c5bd 63bf 183d
00000160: 1591 d6bd 99e7 36bd 0659 95bd 3b2a c3bc
00000170: c256 a4bd c2d2 513d f0b7 77bd e2fe 88bd
00000180: 2561 76bd b130 ed3c 2fac 9e3d 8cd6 c53d
00000190: 5413 ad3d e335 17bd 5c0a 1ebd 1881 ad3d
000001a0: 40a9 ac3c bdc5 e83d 5102 73bd 2fd7 b93d
000001b0: 008d 8ebd 9d4b 623d b350 193d 945e ae3d
000001c0: d0d1 e03d 2380 0b3d 0d85 613d fe43 d53d
000001d0: 06b4 0bbd 9771 cebc 2a74 913c 7943 a93d
000001e0: e086 ea3c 26cb df3d fcdc 8fbc 84fd c43d
000001f0: baae c03d bb25 a9bd f88c 373d 52a4 aa3c
0.089454 0.022183642 0.11815613 0.07415867 -0.029780298 0.09681391 -0.055348303 0.02851549
0.026170706 0.04355608 0.12539084 -0.03632352 0.03669684 -0.008177029 0.027814452 -0.08900837
0.044234805 0.05444412 -0.022611266 0.027939737 0.12621732 0.037093796 -0.044417858 0.097305626
-0.056914065 0.040901963 0.04038217 0.11390474 0.06795586 0.11812584 0.07865111 -0.025005298
0.049463958 -0.08289343 -0.030221658 0.08436684 -0.05011896 -0.071284674 0.044616982 -0.12700646
0.018723786 0.0072656497 0.078486666 -0.0650121 0.10831036 0.12335604 0.020273928 -0.04120765
0.0106965145 0.16394435 -0.10290252 -0.08430323 -0.07094911 -0.12307659 0.04398476 -0.091863975
-0.08171995 -0.04205613 -0.047803905 -0.07346247 0.072690494 0.039752703 -0.04183477 0.03740307
0.014153784 -0.085908234 0.03893522 -0.078074194 -0.09020946 0.033843648 0.02704682 0.0461979
0.043211423 0.07077009 -0.087349124 -0.08433568 0.031160159 -0.090587884 -0.06550199 -0.04926497
-0.089004375 0.0037531108 -0.00046569356 0.090401195 0.0076254723 -0.084233135 -0.096374765 0.037291896
-0.10476891 -0.044654462 -0.072923705 -0.023823848 -0.0802436 0.051226385 -0.06047815 -0.0668924
-0.060151238 0.028953882 0.07747685 0.09660062 0.08450952 -0.036916625 -0.0385841 0.08471888
0.021076798 0.113658406 -0.05932838 0.09074246 -0.06960487 0.05524789 0.037430476 0.08514133
0.109775186 0.034057748 0.055058528 0.10413359 -0.03410723 -0.025200648 0.017755587 0.082648225
0.028628767 0.10927419 -0.017561428 0.09618667 0.094083264 -0.0825915 0.044812173 0.020830307
